a2c_autoRebalance/policy.pth (torch, 41086 bytes, 12 tensors)

log_std f4 [3]
0	0x3ab1843e	0.001354344
1	0xbe06e7b5	-0.13174327
2	0xbd451492	-0.04811532

mlp_extractor.policy_net.0.weight f4 [64, 4]
0	0xbe257fad	-0.16161986
1	0x3e3f181c	0.18661541
2	0xbdbe925d	-0.0930526
3	0xbe77f90d	-0.24216099
4	0x3d29255b	0.04129539
5	0xbda4ef94	-0.080535084
6	0x3c58405d	0.013198939
7	0x3e8fa196	0.28052968
8	0x3edef957	0.43549606
9	0x3dbe767b	0.09299942
10	0x3d0059c2	0.0313356
11	0xbda2ea9f	-0.07954907
12	0x3d2d9f7a	0.042388417
13	0xbe0561c6	-0.13025579
14	0xbe837ad4	-0.25679648
15	0x3ed71229	0.42006043
16	0xbcd04136	-0.02542172
17	0xbe1cc03d	-0.15307708
18	0xbeb4455d	-0.3520917
19	0x3dddcd3c	0.10830161
20	0xbea845d9	-0.3286579
21	0x3e264efc	0.16241068
22	0xbe6de33e	-0.23231217
23	0xbe37b142	-0.17938712
24	0xbc637d34	-0.013884831
25	0xbda55d83	-0.080744766
26	0x3cbfc026	0.023407053
27	0x3d850308	0.06494719
28	0x3d1a6aed	0.03769963
29	0x3d6156cb	0.055014413
30	0x3de2c224	0.11072186
31	0x3ea0cc59	0.31405905
32	0xbca99397	-0.02070026
33	0x3e90c444	0.2827474
34	0x3d579a1e	0.052637212
35	0xbe75aee7	-0.23992501
36	0xbebb2d74	-0.36558115
37	0x3e2cbe7d	0.1686954
38	0xbe4c6622	-0.19960836
39	0xbdcc72dc	-0.09982845
40	0x3c7d821a	0.015472913
41	0x3eb9d70d	0.36296883
42	0x3e3d6fd0	0.18499684
43	0x3e1f14d5	0.1553529
44	0x3d6ea979	0.05826709
45	0x3db9942f	0.09061467
46	0x3eee238b	0.46511492
47	0x3e5eafab	0.217467
48	0xbe0a93a5	-0.13532884
49	0xbebf8ff5	-0.37414518
50	0x3e5a23f3	0.21302776
51	0x3e1af4a7	0.1513239
52	0xbe868110	-0.26270342
53	0x3e86bd58	0.26316333
54	0xbea2bec8	-0.3178618
55	0x3d94ddb8	0.07268852
56	0xbe00ae8d	-0.12566586
57	0x3d36678a	0.044532336
58	0xbec490b0	-0.38391638
59	0xbd7c9334	-0.06166382
60	0xbf30669f	-0.6890659
61	0xbe2eca81	-0.17069437
62	0x3d959902	0.073045745
63	0x3ddfff24	0.10937336
64	0xbe95ee64	-0.2928344
65	0x3ea49971	0.32148317
66	0xbd828527	-0.06373053
67	0x3d66907f	0.056290146
68	0xbe8ba10e	-0.27271312
69	0x3d1f9592	0.038961
70	0x3d6c7b98	0.057735056
71	0xbeb26acd	-0.34847108
72	0xbc3f7502	-0.011685612
73	0x3d8ecba5	0.06972436
74	0x3e66e158	0.225469
75	0xbe4bd332	-0.19904783
76	0xbd804053	-0.06262269
77	0xbda70a00	-0.08156204
78	0xbe689e6a	-0.2271668
79	0xbdc10416	-0.094246075
80	0xbdb48a18	-0.08815402
81	0x3e283a59	0.16428508
82	0xbda18465	-0.078865804
83	0x3ec1c949	0.3784888
84	0xbe7fe0cc	-0.24988097
85	0x3e186628	0.1488272
86	0x3e955abc	0.29170787
87	0x3d4beb70	0.049785078
88	0xbe5eb913	-0.21750288
89	0xbd9af2f1	-0.07565869
90	0x3e42ff4e	0.19042704
91	0xbd8492e4	-0.0647333
92	0xbe1e8970	-0.15482116
93	0x3dc2fca5	0.09520844
94	0x3ed03ee1	0.40672973
95	0xbe8f00ad	-0.27930203
96	0xbd363862	-0.044487365
97	0xbd368ef4	-0.044569924
98	0xbde80e0b	-0.113308035
99	0x3d5099b0	0.050927818
100	0x3d3f3ecf	0.04669076
101	0xbd89b91b	-0.06724759
102	0x3d23cb09	0.03998855
103	0x3ddc6286	0.10760979
104	0xbe1faf7d	-0.15594287
105	0xbe52e218	-0.2059406
106	0xbe07db4c	-0.13267249
107	0x3d365867	0.0445179
108	0x3c07b6bb	0.008283312
109	0xbe7270cb	-0.2367584
110	0xbebbca6c	-0.36677873
111	0x3e451b0b	0.19248597
112	0x3e5fd04f	0.21856807
113	0x3e770a80	0.24125099
114	0x3dc2c632	0.09510459
115	0xbd12693d	-0.035744894
116	0x3e2042f1	0.15650536
117	0x3ddb2a51	0.107014306
118	0xbd2abe9f	-0.041685697
119	0x3e6b9b58	0.23008478
120	0x3dfeca90	0.124409795
121	0x3cce3481	0.02517152
122	0x3dcc897f	0.09987163
123	0x3e9e2f90	0.30895662
124	0x3df24e3f	0.118313305
125	0xbeb3b41c	-0.3509835
126	0x3ca80d11	0.020514043
127	0x3e6efcb4	0.23338586
128	0x3c87ba15	0.016568223
129	0x3e9ffda1	0.3124819
130	0xbeafab0c	-0.34310186
131	0x3d42cdbf	0.047559496
132	0xbeea623b	-0.4577807
133	0xbdebf9c9	-0.11522252
134	0x3d01a627	0.031652596
135	0x3ccc736b	0.02495738
136	0xbd1b021b	-0.037843805
137	0x3e496946	0.19669065
138	0xbe0c9968	-0.13730395
139	0x3c525482	0.012837531
140	0xbd7c7758	-0.061637253
141	0x3ca342a3	0.019929236
142	0x3e7ac12d	0.24487753
143	0xbe1234f1	-0.14278008
144	0x3c75dbfd	0.015006063
145	0x3de0659b	0.1095688
146	0xbe99b802	-0.300232
147	0xbe041a44	-0.12900645
148	0xbe0c731c	-0.13715786
149	0x3e5e1315	0.21686967
150	0xbdc3870c	-0.095472425
151	0xbd9db6e5	-0.077009
152	0xbdda8eb0	-0.10671747
153	0xbc8916e4	-0.016734548
154	0xbdcea5b1	-0.10090197
155	0x3e1cc44f	0.15309261
156	0x3e6ddb3a	0.2322816
157	0xbd827059	-0.06369085
158	0x3eac706d	0.33679524
159	0xbe59918e	-0.21246931
160	0x3e50b87c	0.20382875
161	0xbf180b6e	-0.5939244
162	0xbd81218a	-0.06305225
163	0x3d9b2b47	0.07576614
164	0xbdecc817	-0.115616016
165	0xbe22ed3f	-0.15910815
166	0xbc3fdec8	-0.01171083
167	0x3d622e59	0.05521998
168	0xbe2b5062	-0.16729882
169	0x3da74a85	0.0816851
170	0x3ce07268	0.027398303
171	0x3e0f75c0	0.14009762
172	0xbe01ae26	-0.12664089
173	0x3dce9c14	0.10088363
174	0xbe0af708	-0.13570797
175	0xbcbe1dbf	-0.023207543
176	0xbde288a5	-0.11061219
177	0x3e062d91	0.1310332
178	0xbce4cc50	-0.027929455
179	0x3d7bee6f	0.061506685
180	0x3df79c78	0.12090391
181	0xbdc780a1	-0.09741331
182	0xbd88e9b7	-0.066852026
183	0x3b6ffea0	0.0036620274
184	0x3e1a13b1	0.15046574
185	0xbe5744b0	-0.21022296
186	0x3d1fc1de	0.039003246
187	0xbe805dfc	-0.25071704
188	0xbe087e3f	-0.13329409
189	0x3dd240bd	0.10266254
190	0xbb8507cd	-0.004059768
191	0x3e2bfc18	0.16795385
192	0x3bcfe85a	0.006344837
193	0x3e39d434	0.18147355
194	0xbe0b01c7	-0.13574897
195	0xbdb424c8	-0.08796078
196	0x3d09c292	0.033632822
197	0xbe6e0a6c	-0.23246163
198	0xbe0e9f62	-0.13927987
199	0xbe3a759e	-0.1820893
200	0xbe1db7aa	-0.15402094
201	0x3e7330d9	0.23749103
202	0xbba4bfa9	-0.0050277305
203	0x3e2e6613	0.17031126
204	0x3cd851b7	0.026406152
205	0xbeb7877d	-0.35845557
206	0x3e12a209	0.14319624
207	0xbe22e267	-0.15906678
208	0xbd08c74f	-0.0333932
209	0x3ead2d7a	0.33823758
210	0xbdc7e8a7	-0.09761172
211	0xbe27be89	-0.16381277
212	0x3db71757	0.089399986
213	0x3ede2d72	0.43394047
214	0x3c4bf8fc	0.012449499
215	0x3ddf08c5	0.108903445
216	0x3dc524af	0.096261375
217	0xbe35431a	-0.17701378
218	0x3da4b3c3	0.08042099
219	0xbe0730c2	-0.13202193
220	0x3d6d4d59	0.057935093
221	0xbdb5caf5	-0.088766016
222	0xbd9d736d	-0.07688031
223	0x3b61b66c	0.0034441007
224	0x3e835457	0.25650284
225	0xbe372556	-0.17885336
226	0xbcc1807f	-0.023620842
227	0xbefbe027	-0.49194452
228	0x3e33a906	0.17544946
229	0xbdeb3d3c	-0.11486289
230	0x3e6ab68b	0.22921197
231	0x3e698765	0.22805555
232	0x3dd7412a	0.10510476
233	0x3dccc16a	0.09997828
234	0xbe0e2e5b	-0.1388487
235	0xbdd65772	-0.104658976
236	0xbc8dbdfb	-0.017302504
237	0x3d9ee5ea	0.077586964
238	0x3d36e98b	0.044656318
239	0xbd7cf4c5	-0.061756868
240	0xbe0f7ab8	-0.14011657
241	0xbe73393c	-0.23752302
242	0x3dd44dc7	0.10366397
243	0x3e63dfe5	0.22253378
244	0xbd73a750	-0.059485734
245	0xbe8be43f	-0.27322575
246	0x3e811301	0.2520981
247	0xbe2dce43	-0.16973214
248	0x3e3cf225	0.18451746
249	0xbe822127	-0.25415918
250	0xbe189eda	-0.14904347
251	0xbe3a2a76	-0.1818026
252	0x3eacb089	0.33728436
253	0xbde95538	-0.11393207
254	0x3d1309a4	0.035897866
255	0x3e5538c9	0.20822443

mlp_extractor.policy_net.0.bias f4 [64]
0	0xbdeb3bb8	-0.11486
1	0x3de356dd	0.11100552
2	0x3dd9be06	0.10631947
3	0x3df57fdb	0.11987277
4	0x3dc1a925	0.0945609
5	0xbddab0bf	-0.10678243
6	0x3df2717b	0.11838051
7	0xbde144a5	-0.10999421
8	0xbdfc38d6	-0.12315528
9	0xbddd27db	-0.107986175
10	0xbde51b43	-0.111868404
11	0x3ddc887f	0.10768222
12	0x3de3250f	0.11091053
13	0xbdde0776	-0.10841267
14	0xbd945e9a	-0.07244606
15	0xbdaa5470	-0.083168864
16	0xbdcea3f7	-0.100898676
17	0xbe034c29	-0.12822022
18	0xbdb5d698	-0.08878821
19	0xbde6f5c5	-0.112773456
20	0xbd91b393	-0.07114329
21	0xbe067940	-0.1313219
22	0xbdff0d6a	-0.124537304
23	0xbdb6d1d7	-0.089267425
24	0xbddcd2a5	-0.10782365
25	0x3df89d09	0.12139327
26	0x3de94464	0.113899976
27	0x3dfb3624	0.12266186
28	0xbdfe0fe7	-0.12405377
29	0x3de98ff2	0.114044085
30	0x3df7048c	0.12061414
31	0x3df4996b	0.11943325
32	0xbde303d5	-0.11084715
33	0xbdf17be8	-0.11791211
34	0xbdf3635e	-0.11884187
35	0x3c46251c	0.0120938085
36	0xbda1b239	-0.078953214
37	0xbddfcf78	-0.109282434
38	0xbd7300c9	-0.05932692
39	0x3db63265	0.08896331
40	0x3dce8277	0.10083478
41	0x3df1ba61	0.11803127
42	0x3e01f517	0.1269115
43	0xbdc02b7b	-0.09383293
44	0xbdf7ae64	-0.12093809
45	0x3dfcc444	0.12342122
46	0x3dcba28f	0.09943115
47	0xbdc7d79a	-0.097579196
48	0xbddd3ab6	-0.10802214
49	0x3df02f88	0.11727816
50	0xbdd2990a	-0.10283096
51	0x3dc9972d	0.098432876
52	0xbdeaa884	-0.11457923
53	0xbdd9a3d8	-0.10626954
54	0x3dfd0db3	0.123561285
55	0x3dfa79e6	0.122302815
56	0x3dd348a3	0.10316589
57	0x3df3c3bd	0.119025685
58	0xbdf34f30	-0.11880338
59	0xbe05a707	-0.13051997
60	0x3de9dc90	0.11419022
61	0x3dc7593d	0.09733818
62	0x3df16cf4	0.11788359
63	0x3df71580	0.12064648

mlp_extractor.policy_net.2.weight f4 [64, 64]
0	0xbe8aad9b	-0.27085575
1	0x3daa97ca	0.08329733
2	0xbe6557b8	-0.22396743
3	0x3e1a9d97	0.15099178
4	0xbc131a19	-0.00897839
5	0xbe9b088d	-0.3027996
6	0xbd8b9a8d	-0.068165876
7	0x3e0f6e89	0.1400701
8	0x3d6a9e4c	0.05727987
9	0x3d500ca4	0.050793305
10	0x3df9262b	0.12165483
11	0x3cae9b18	0.021314189
12	0x3ecb20e0	0.3967352
13	0x3e38cd11	0.18046977
14	0x3dfe857f	0.12427806
15	0x3cc62bec	0.024190865
16	0xbd58b51b	-0.05290709
17	0xbc460d00	-0.01208806
18	0x3e3f7b45	0.18699367
19	0x3d5419e4	0.051782504
20	0x3eaac29d	0.33351603
21	0x3edb8a3a	0.42878896
22	0xbd687ca4	-0.05675949
23	0xbcfc8ab8	-0.030827865
24	0x3c67a617	0.01413872
25	0xbe34fa88	-0.17673695
26	0xbd8dac79	-0.06917662
27	0x3de4f925	0.11180333
28	0x3e3192bd	0.17341132
29	0x3dc25895	0.09489552
30	0xbeec8af6	-0.4619977
31	0xbcb10d0d	-0.021612668
32	0x3d82ed56	0.063929245
33	0x3e5fa996	0.21842036
34	0x3e4780b1	0.19482686
35	0x3d30c91a	0.043160535
36	0x3e299996	0.16562495
37	0xbdbaa629	-0.09113724
38	0x3d802a2d	0.062580444
39	0xbea58761	-0.32329848
40	0x3c35af5d	0.011089173
41	0x3d1c0c7f	0.038097855
42	0xbe9694dd	-0.2941045
43	0x3e31353c	0.17305464
44	0x3e308104	0.17236716
45	0xbd87c609	-0.06629569
46	0xbb567be4	-0.0032727653
47	0x3d90a743	0.07063153
48	0x3e929992	0.2863279
49	0xbe958423	-0.29202375
50	0xbe6aefef	-0.2294309
51	0xbea05255	-0.31312814
52	0x3e08efc2	0.1337271
53	0x3e822ca4	0.25424683
54	0x3dfc5823	0.12321498
55	0xbd831d14	-0.064020306
56	0xbe03d0a5	-0.1287256
57	0xbec2fe16	-0.38084477
58	0x3da40625	0.080089845
59	0xbdb1b795	-0.086775936
60	0x3e42be8f	0.19018005
61	0xbe8e187e	-0.2775306
62	0x3e414f92	0.1887801
63	0xbea415fd	-0.32048026
64	0xbe43c9dc	-0.19119972
65	0xbd873c7e	-0.06603335
66	0x3db7c517	0.08973139
67	0xbed3d60e	-0.41374248
68	0xbe7db9b5	-0.24777873
69	0xbeb3f2d8	-0.35146213
70	0x3e6f3acf	0.23362277
71	0x3e8c5e87	0.2741587
72	0xbc2109cb	-0.009828995
73	0x3bee9e4c	0.007282054
74	0xbd03db9c	-0.032191858
75	0xbcac9fa5	-0.021072218
76	0x3eaba517	0.3352439
77	0xbe8d781b	-0.27630696
78	0xbd1ef5ec	-0.038808748
79	0xbe00beb8	-0.12572753
80	0xbe3e184e	-0.18563959
81	0x3e40003a	0.18750086
82	0xbe702406	-0.23451242
83	0xbdf46bb4	-0.11934605
84	0xbda9a60d	-0.08283625
85	0x3c6aa06b	0.014320473
86	0x3d2c8f85	0.04212906
87	0xbe0ac47f	-0.1355152
88	0xbb326185	-0.002721877
89	0xbd743e94	-0.05962999
90	0x3e730c2a	0.23735109
91	0x3d88da22	0.066822305
92	0xbd38a8cd	-0.045082856
93	0x3e0173f5	0.1264189
94	0x3d09b9df	0.033624526
95	0xbe704475	-0.23463614
96	0xbe1d0afb	-0.1533622
97	0xbed74554	-0.4204508
98	0xbd0f4617	-0.034978952
99	0x3e5446a3	0.20730071
100	0xbd395a4a	-0.045252122
101	0xbe30f071	-0.17279221
102	0xbe0b6ef6	-0.13616547
103	0xbbf22905	-0.007390144
104	0xbc644c8f	-0.013934269
105	0x3dcd8174	0.10034457
106	0x3e938fb9	0.2882059
107	0xbe3a61bb	-0.18201344
108	0x3e3e9478	0.18611324
109	0x3d4a7a5f	0.04943311
110	0x3e773178	0.24139965
111	0x3de0d5e2	0.10978295
112	0x3e06734b	0.13129918
113	0x3eb8770b	0.36028323
114	0xbe2f1760	-0.1709876
115	0x3d1d1324	0.038348332
116	0xbe2a80c4	-0.16650683
117	0xbe2b804d	-0.16748162
118	0x3d45c765	0.04828586
119	0x3e1c27e6	0.15249595
120	0x3e137232	0.14399031
121	0x3eb8da17	0.3610389
122	0x3e710397	0.23536526
123	0x3d941151	0.07229865
124	0xbe8ebafc	-0.27877033
125	0x3ea12d42	0.3147984
126	0x3e96cf79	0.29455164
127	0xbe3c5cd8	-0.18394792
128	0xbdf608f6	-0.12013428
129	0x3d8c2f74	0.068449885
130	0xbe8d05e0	-0.27543545
131	0x3d8853a9	0.06656582
132	0xbe0288ae	-0.12747452
133	0x3e8f2043	0.279543
134	0xbec1851f	-0.37796876
135	0x3e6e6405	0.23280342
136	0x3df540ac	0.11975226
137	0x3ed16604	0.40898144
138	0x3d1ccb54	0.038279846
139	0x3e1c26dc	0.15249199
140	0x3dedb65c	0.11607048
141	0x38e90cb8	0.00011112675
142	0xbc473a3f	-0.012159883
143	0xbde7a280	-0.11310291
144	0x3e7fa958	0.24966943
145	0x3e692597	0.22768246
146	0x3df3204f	0.11871397
147	0xbd5b6f0b	-0.053572696
148	0x3d2d7e77	0.042356934
149	0x3e34abeb	0.17643707
150	0x3ea44657	0.32084915
151	0x3e7ea6cc	0.24868315
152	0xbe3006c6	-0.17190084
153	0x3c294a7c	0.0103327
154	0xbede0997	-0.4336669
155	0xbe2096bb	-0.15682499
156	0x3e3a5f66	0.18200454
157	0xbd430dee	-0.047620706
158	0xbe8ac8fe	-0.2710647
159	0xbe237d26	-0.15965709
160	0xbbded47d	-0.006800233
161	0xbd952e6a	-0.072842434
162	0x3eab44a4	0.33450806
163	0xb9d7f31e	-0.00041189132
164	0x3e9116d6	0.28337735
165	0x3ea044ee	0.3130259
166	0x3e905516	0.28189915
167	0xbd0977f5	-0.033561666
168	0xbe9f23d5	-0.31082025
169	0xbe4a1e73	-0.19738178
170	0xbd670d2a	-0.05640904
171	0xbe91093e	-0.28327364
172	0x3e859891	0.2609296
173	0xbc50c80d	-0.012743008
174	0xbdf86554	-0.12128702
175	0x3e892bd1	0.26791242
176	0xbcac313b	-0.021019569
177	0x3e84c1c5	0.25929084
178	0x3df13819	0.11778278
179	0xbe482b91	-0.1954787
180	0x3de6af4b	0.11263903
181	0x3de9e96f	0.11421477
182	0xbe063e82	-0.13109782
183	0xbeb6fcfd	-0.3573989
184	0x3dfd1b4a	0.123587206
185	0xbec8b9ec	-0.39204347
186	0xbc4d9743	-0.012548271
187	0x3d338ce3	0.043835532
188	0xbe955785	-0.29168335
189	0xbe4b1d2f	-0.19835351
190	0xbf027444	-0.5095866
191	0xbd0dba99	-0.03460178
192	0xbe0989f7	-0.13431536
193	0x3c476ba5	0.012171661
194	0xbe00fa81	-0.1259556
195	0x3e7c12b9	0.24616517
196	0x3c9d17b9	0.01917635
197	0xbe31cfe0	-0.17364454
198	0xbe0b04e4	-0.13576084
199	0xb9a41690	-0.00031297328
200	0xbd9668c3	-0.073442005
201	0xbd621be5	-0.055202384
202	0xbd9db070	-0.076996684
203	0x3e1f64ac	0.15565747
204	0x3c24e7cd	0.010065031
205	0x3e608918	0.21927297
206	0x3e477828	0.1947943
207	0xbe5af66f	-0.2138307
208	0xbe9414d1	-0.28922132
209	0xbe1d6eca	-0.15374294
210	0x3d5b340c	0.053516433
211	0x3e63b947	0.22238646
212	0xbe3988bf	-0.1811857
213	0x3d6d943f	0.058002707
214	0xbd90a72b	-0.07063135
215	0x3cacec94	0.021108903
216	0x3c5e76e7	0.013578153
217	0x3e801114	0.2501303
218	0xbddff107	-0.10934644
219	0x3eaa3eb7	0.33250973
220	0x3cb026d6	0.021502893
221	0x3e1737d0	0.14767385
222	0x3ebe303f	0.37146184
223	0x3ebcd6a1	0.368825
224	0xbe585fa7	-0.21130238
225	0xbec0878a	-0.37603408
226	0xbe461ebf	-0.19347666
227	0xbdbfb0bd	-0.09359882
228	0xbe37e147	-0.1795703
229	0xbe2f7a68	-0.17136538
230	0x3d39d61b	0.045370203
231	0x3e8ef0e4	0.2791816
232	0x3e0af8a6	0.13571414
233	0x3ed0cbbd	0.4078044
234	0x3ec1e0fd	0.37866965
235	0x3d336983	0.043801796
236	0xbe8b4fb6	-0.27209252
237	0x3e1174d4	0.14204723
238	0x3e6f3993	0.23361807
239	0xbca89b47	-0.020581855
240	0x3e7f8874	0.24954396
241	0x3b081f9e	0.0020770798
242	0xbe4cbb36	-0.1999329
243	0x3e268e22	0.16265157
244	0xbe0b4f5c	-0.13604492
245	0xbedb3a0d	-0.42817727
246	0xbd8f7407	-0.07004552
247	0x3e895605	0.2682344
248	0x3e4cbb79	0.1999339
249	0x3e45d53a	0.1931962
250	0xbecad2b9	-0.39613894
251	0xbea2087d	-0.316471
252	0xbe9ce37b	-0.30642304
253	0xbe009fdd	-0.12560983
254	0x3de31322	0.11087634
255	0xbd9fdd1c	-0.07805845

mlp_extractor.policy_net.2.bias f4 [64]
0	0xbd96906d	-0.07351766
1	0x3d7bff8f	0.061523017
2	0xbdf26b81	-0.11836911
3	0x3df7aee9	0.12093908
4	0xbdc498cd	-0.09599457
5	0x3dd39eca	0.10333021
6	0x3de3a1fa	0.11114879
7	0x3dd9182e	0.10600315
8	0xbdac2521	-0.08405519
9	0xbde58aec	-0.11208138
10	0x3d995302	0.074865356
11	0xbda7f8a3	-0.082017206
12	0x3ddfbcab	0.109246574
13	0xbd8a6521	-0.0675757
14	0x3db03bd7	0.086051635
15	0xbdd3819e	-0.10327457
16	0x3db2f291	0.08737672
17	0xbdc395ad	-0.09550033
18	0xbd4fd816	-0.050743185
19	0xbdf09d6c	-0.11748776
20	0x3dca40a0	0.098756075
21	0xbdcc9e08	-0.099910796
22	0x3d983064	0.07431105
23	0x3ddb13ef	0.106971614
24	0xbdbbd877	-0.09172147
25	0xbdbe3eff	-0.09289359
26	0xbd0cd11b	-0.034379106
27	0xbdd0d97b	-0.10197731
28	0x3df671c0	0.12033415
29	0x3db9f79c	0.09080431
30	0x3dd2f7d9	0.103011794
31	0xbdd5da67	-0.104420476
32	0xbdd598f8	-0.10429567
33	0x3de6b774	0.1126546
34	0xbdd7d5fe	-0.10538863
35	0x3debe1fc	0.115177125
36	0x3dac81ae	0.08423172
37	0xbde77600	-0.113018036
38	0x3dee6937	0.11641162
39	0xbdb723e2	-0.08942391
40	0x3dbf6cf1	0.09346951
41	0x3dd02fb4	0.10165349
42	0x3dcde2fc	0.100530595
43	0xbdc1d98f	-0.09465324
44	0xbde1f21e	-0.11032508
45	0xbddcca68	-0.107807934
46	0xbdc83aab	-0.09776815
47	0x3dc27b67	0.094961934
48	0xbdd4776a	-0.10374339
49	0x3dd23e1f	0.10265755
50	0xbdb0a8e6	-0.08625965
51	0x3da944c0	0.08265066
52	0xbdfc87b2	-0.12330569
53	0xbd9f0ada	-0.07765742
54	0xbdf1aa73	-0.11800089
55	0xbdbee743	-0.093214534
56	0x3ded6b1d	0.11592696
57	0xbd663d5f	-0.05621087
58	0xbdb745c3	-0.08948853
59	0xbd98f632	-0.07468833
60	0x3dccb740	0.0999589
61	0xbdcc093a	-0.09962697
62	0xbd9f7a3b	-0.077869855
63	0x3df6bb18	0.12047404

mlp_extractor.value_net.0.weight f4 [64, 4]
0	0x3e4953ea	0.19660917
1	0x3d6c2d34	0.057660297
2	0xbe537a24	-0.20652062
3	0xbe1c98c2	-0.15292647
4	0x3e12f516	0.14351305
5	0x3e0b5d98	0.13609922
6	0x3eb64686	0.3560068
7	0x3eb7148b	0.3575786
8	0xbe0c3f81	-0.136961
9	0x3deafc8e	0.11473952
10	0x3e0fabaa	0.14030328
11	0x3ce87c5b	0.02837961
12	0xbe042486	-0.12904558
13	0x3d6eacbf	0.058270212
14	0xbde67b80	-0.112540245
15	0xbd989c58	-0.07451695
16	0xbd0f371c	-0.034964666
17	0xbe11d1c0	-0.1424017
18	0xbe593266	-0.21210632
19	0x3e4eacdf	0.20183133
20	0x3e73437e	0.23756215
21	0xbebc7c56	-0.3681361
22	0xbe26bd8c	-0.16283244
23	0x3d9b244d	0.07575283
24	0x3d5f5549	0.054524694
25	0xbe91cd34	-0.2847687
26	0xbdbc115c	-0.091829985
27	0xbe7f97f2	-0.24960306
28	0x3f00c943	0.503071
29	0xbdbdb696	-0.09263341
30	0x3e4bc4ab	0.19899242
31	0x3e3fe64c	0.18740195
32	0xbe32e0e1	-0.17468597
33	0xbdcba461	-0.09943462
34	0x3ec1edd4	0.3787676
35	0xbd77f8fc	-0.060540184
36	0x3ec52b3a	0.38509542
37	0xbe901e09	-0.28147915
38	0x3e91a1a9	0.2844365
39	0xbe0e035e	-0.13868472
40	0x3e5ccd3a	0.21562663
41	0x3e27c9d2	0.16385582
42	0xbe665c71	-0.22496201
43	0x3d82ac90	0.0638057
44	0xbe835b73	-0.25655708
45	0x3ea87904	0.32904828
46	0x3dc8f991	0.09813226
47	0xbe4e9a57	-0.20176063
48	0xbae4175b	-0.001740198
49	0x3eca8270	0.3955264
50	0xbcd2f5cd	-0.025751973
51	0xbeca9ddb	-0.3957356
52	0xbe8f0991	-0.27936986
53	0xbdc1953a	-0.09452291
54	0x3e438107	0.19092189
55	0x3e70be9e	0.23510215
56	0xbe276dab	-0.16350429
57	0xbe0de990	-0.13858628
58	0x3e21c724	0.15798622
59	0x3d1ee7ab	0.038795155
60	0xbc6f6957	-0.014612517
61	0x3e835ac7	0.25655195
62	0xbd69fda0	-0.05712664
63	0x3d32c53c	0.04364513
64	0x3e2402ad	0.16016646
65	0xbed93e8f	-0.4243054
66	0x3e65afb1	0.22430302
67	0x3e297d24	0.16551644
68	0xbcc35264	-0.023842998
69	0x3cfc3262	0.030785743
70	0xbe5fd13f	-0.21857165
71	0x3e41713e	0.18890855
72	0xbd8c7ce9	-0.06859762
73	0xbe049139	-0.12946023
74	0xbe435442	-0.1907511
75	0x3ec35046	0.3814718
76	0x3df10cb5	0.11770002
77	0xbe7bfee6	-0.24608955
78	0x3d034fd1	0.03205854
79	0x3e563d1d	0.2092175
80	0xbc3eed01	-0.011653186
81	0x3e97ae32	0.29625088
82	0xbd562073	-0.05227704
83	0x3b54ca2d	0.003246914
84	0xbe778199	-0.24170531
85	0x3d211440	0.039325953
86	0xbd6f9d80	-0.058499813
87	0xbe8ab703	-0.27092752
88	0x3ec09836	0.37616128
89	0xbdbc9322	-0.09207751
90	0xbe79a64c	-0.24379843
91	0x3df90153	0.12158456
92	0x3dde7f2c	0.108641
93	0xbce15c28	-0.027509764
94	0xbd0481e3	-0.032350432
95	0x3eb4211d	0.35181513
96	0xbd5845bf	-0.05280089
97	0xbe6cd3e1	-0.231277
98	0xbe79c266	-0.24390563
99	0x3ec76cdb	0.38950238
100	0xbddf3f28	-0.10900718
101	0xbddf053e	-0.10889672
102	0xb9998990	-0.00029284926
103	0xbbf57ae9	-0.0074914587
104	0x3db13bf6	0.08654015
105	0x3e826cb8	0.2547357
106	0x3dc691b2	0.09695758
107	0x3c92239f	0.017839251
108	0x3d746844	0.059669748
109	0x3e84adbb	0.25913796
110	0x3d0b41ee	0.033998422
111	0xbe89676e	-0.26836723
112	0x3ea6e03e	0.32592958
113	0x3c738d97	0.014865301
114	0xbe676b12	-0.22599438
115	0x3c5ed9b0	0.013601705
116	0xbea68a17	-0.3252723
117	0x3dd6cd57	0.10488384
118	0xbe4fb1c6	-0.20282659
119	0xbebe3cfe	-0.37155908
120	0xbd867bb4	-0.06566563
121	0x3e4ecbae	0.20194885
122	0x3d958fcb	0.07302817
123	0x3d2da2d1	0.042391602
124	0x3e020824	0.12698418
125	0xbd1ac974	-0.037789777
126	0x3e22d244	0.15900522
127	0xbdf10d86	-0.117701575
128	0xbd5f51cd	-0.05452137
129	0xbdeb2bfe	-0.11483
130	0x3cb74f39	0.022376643
131	0x3eac65c1	0.33671382
132	0xbe954524	-0.29154313
133	0xbe389acf	-0.18027805
134	0xbe2abf2d	-0.1667449
135	0xbb4730ca	-0.003039407
136	0x3dff2f40	0.12460184
137	0xbcd35050	-0.025795132
138	0xbcbef5b5	-0.023310522
139	0xbeb94825	-0.36187854
140	0x3d8beee0	0.06832671
141	0xbd5f4b7d	-0.05451535
142	0x3e2fc991	0.17166735
143	0x3e7c3d01	0.24632646
144	0xbe02e600	-0.1278305
145	0xbedff645	-0.43742576
146	0xbd41ee30	-0.047346294
147	0xbd562e76	-0.052290402
148	0x3d0bce42	0.03413225
149	0x3dd5fbdc	0.10448429
150	0xbc144b2f	-0.009051128
151	0x3da28b3e	0.079367146
152	0xbde0624c	-0.10956249
153	0x3e530a1f	0.2060933
154	0x3e85b51e	0.26114744
155	0x3de5141f	0.111854784
156	0x3e1bccad	0.15214796
157	0xbdca021d	-0.09863684
158	0xbdff118d	-0.124545194
159	0xbd82d9a3	-0.06389167
160	0x3d66dde0	0.05636394
161	0x3df48d51	0.119410165
162	0x3e9f1b47	0.31075498
163	0x3e7baae8	0.24576914
164	0xbe630df6	-0.22173294
165	0x3e8a96d1	0.2706819
166	0x3e40a784	0.18813902
167	0x3d87fe52	0.066403046
168	0xbde6a434	-0.11261788
169	0xbe426fdc	-0.18987983
170	0xbd4c937b	-0.049945336
171	0x3e018c0f	0.12651084
172	0xbe105904	-0.14096457
173	0x3d17c8de	0.037056796
174	0x3d483a57	0.048883762
175	0xbdc5bdd8	-0.096553504
176	0x3e142ef2	0.14471033
177	0xbe06fc9b	-0.13182299
178	0xbdf5f787	-0.12010103
179	0x3d27985d	0.04091679
180	0xbc2e670d	-0.010644686
181	0x3d2716f4	0.040793374
182	0xbd8a69de	-0.06758474
183	0x3dfb8a2a	0.12282212
184	0x3e00386d	0.12521525
185	0xbea72243	-0.32643327
186	0x3dc900a5	0.09814576
187	0x3e2da616	0.16957888
188	0xbe40d864	-0.18832546
189	0x3cbee9a0	0.02330476
190	0xbdfaecb0	-0.12252176
191	0xbde8412c	-0.113405555
192	0x3dcc4dae	0.09975754
193	0xbc991217	-0.018685384
194	0xbd9bdd65	-0.07610587
195	0x3e8f615e	0.28003973
196	0x3ea1f4a5	0.3163196
197	0x3d54d0ad	0.05195682
198	0x3e02d09e	0.12774894
199	0x3de75b5d	0.11296723
200	0xbe2ed7ed	-0.17074557
201	0x3e0f0904	0.13968283
202	0xbeb4449b	-0.35208592
203	0x3e89a806	0.26886004
204	0x3e79c491	0.2439139
205	0xbe1b275f	-0.15151738
206	0xbe2b2a4a	-0.16715351
207	0xbe208293	-0.1567481
208	0x3d7b8c3a	0.061413027
209	0x3e878246	0.26466578
210	0x3dafe4b9	0.08588547
211	0x3e61fd23	0.2206922
212	0x3e7155c1	0.23567869
213	0x3dfd3ced	0.12365136
214	0xbeb454b4	-0.35220873
215	0x3d1db78f	0.038505133
216	0x3d81ea6d	0.06343541
217	0x3ced551c	0.028971247
218	0xbc985daf	-0.01859936
219	0xbead1dc0	-0.3381176
220	0xbd7661c1	-0.06015182
221	0xbd562ea8	-0.05229059
222	0x3d8780a2	0.06616332
223	0xbde862af	-0.113469474
224	0x3e4a4a08	0.19754803
225	0x3e877858	0.26459002
226	0x3e80af79	0.25133875
227	0xbe2f9d34	-0.17149812
228	0xbddfcb9a	-0.10927506
229	0xbdafd1fe	-0.08584975
230	0xbe229dcc	-0.15880507
231	0x3ea78b3d	0.32723418
232	0xbe4b92b2	-0.19880179
233	0xbeb3ebe3	-0.35140905
234	0xbbe177dc	-0.0068807434
235	0xbd954129	-0.07287819
236	0xbc11a10a	-0.008888492
237	0x3d4e0ac9	0.050303254
238	0x3cdc9918	0.02692847
239	0xbdab58f1	-0.083665736
240	0xbddd0547	-0.10792022
241	0xbe052d7c	-0.13005632
242	0x3dc9507c	0.09829804
243	0x3df58810	0.119888425
244	0x3e1e83b5	0.1547993
245	0x3df16178	0.11786169
246	0x3d1b6583	0.037938606
247	0x3c913117	0.017723603
248	0xbe71470a	-0.23562256
249	0xbe321b50	-0.17393231
250	0x3e338438	0.17530906
251	0xbd859897	-0.06523245
252	0xbd08d161	-0.033402804
253	0xbdc63b0d	-0.09679232
254	0x3ea7345f	0.32657143
255	0xbe62a273	-0.22132282

mlp_extractor.value_net.0.bias f4 [64]
0	0x3ecb686f	0.39728114
1	0x3ebfbde2	0.37449557
2	0x3ed0b17b	0.40760407
3	0xbec24b1f	-0.37947938
4	0x3ec60320	0.3867426
5	0x3ecbe8be	0.39826006
6	0x3ed2cc23	0.4117137
7	0x3eb83b8d	0.35982934
8	0xbed6cbbf	-0.4195232
9	0x3ec91d34	0.39280093
10	0xbed54cf2	-0.41660267
11	0xbeb2bcb9	-0.3490961
12	0xbec20a9d	-0.37898722
13	0x3ec3b76c	0.38225877
14	0xbec3a6ad	-0.382131
15	0xbec9c7b7	-0.39410183
16	0x3ec77e78	0.38963675
17	0x3ece5ce8	0.40305257
18	0x3ed45096	0.41467732
19	0x3eb9d034	0.3629166
20	0xbeb05383	-0.34438714
21	0xbebff71d	-0.3749322
22	0x3ebdc9a9	0.37067917
23	0x3ecf154c	0.40445936
24	0x3ec796a3	0.38982114
25	0xbec876ce	-0.3915314
26	0xbec8c16a	-0.39210063
27	0xbebdc21f	-0.37062165
28	0x3eccf5b0	0.40031195
29	0xbec07e04	-0.37596142
30	0xbed0194d	-0.40644303
31	0xbec41ed3	-0.38304767
32	0x3ecc9c7d	0.3996314
33	0xbebf934e	-0.37417072
34	0xbed58360	-0.41701794
35	0x3ec3559f	0.3815126
36	0x3ecbbf29	0.3979428
37	0xbec1a619	-0.37822035
38	0xbeb30b3a	-0.34969503
39	0x3ecf8cd4	0.4053713
40	0xbec3954e	-0.38199848
41	0x3eda596e	0.42646354
42	0x3edd15b4	0.4318062
43	0xbece91e7	-0.4034569
44	0xbeeebd58	-0.46628833
45	0x3ec57a95	0.38570085
46	0x3ea5e9c8	0.32404923
47	0xbec87205	-0.3914949
48	0x3ec2482c	0.37945688
49	0x3ec92b0b	0.39290652
50	0xbeb5fafb	-0.35543045
51	0x3ed2fa48	0.41206574
52	0x3ec43b27	0.3832638
53	0x3eb6fe40	0.35740852
54	0xbeba5721	-0.363946
55	0xbed4352b	-0.41446814
56	0xbecd490a	-0.40094787
57	0x3ed1f746	0.41008967
58	0x3ebedce8	0.37277913
59	0x3ecdd765	0.40203395
60	0x3ec8eddb	0.3924397
61	0xbeca6380	-0.39529037
62	0x3ee2bc51	0.442843
63	0xbebb797d	-0.36616126

mlp_extractor.value_net.2.weight f4 [64, 64]
0	0xbe3e29a3	-0.1857057
1	0xbea41966	-0.32050627
2	0xbe95c1e9	-0.29249504
3	0x3f02d8ed	0.5111225
4	0xbf15380c	-0.58288646
5	0xbd672a12	-0.056436606
6	0xbe26e32d	-0.16297598
7	0xbe8d14c6	-0.2755491
8	0x3ea75cf6	0.3268811
9	0xbd203673	-0.039114427
10	0x3e4d3217	0.20038639
11	0x3f202bc1	0.62566763
12	0xbbaedce6	-0.0053363917
13	0xbec8192b	-0.39081702
14	0x3dc7bc8b	0.097527586
15	0x3dcad943	0.09904721
16	0xbe980280	-0.29689407
17	0xbe92271b	-0.2854546
18	0xbf1b8238	-0.60745573
19	0xbea87b4c	-0.32906568
20	0x3ef13d74	0.47117198
21	0x3d7728bd	0.060341585
22	0xbec39da1	-0.382062
23	0xbe69db77	-0.22837625
24	0xbecdfbe9	-0.40231255
25	0x3efdef9b	0.49596867
26	0x3ef6ba04	0.48188794
27	0x3e5d6db7	0.21623884
28	0xbeb3fc0b	-0.3515323
29	0x3e05408a	0.13012901
30	0x3caf09e7	0.021367026
31	0x3e6692f9	0.22517003
32	0xbebc1e72	-0.36741978
33	0x3edc6929	0.4304898
34	0x3ee7ad19	0.4524925
35	0xbedd27e4	-0.43194497
36	0xbe898a3b	-0.26863274
37	0x3e16e45f	0.14735554
38	0x3d79c4ba	0.06097863
39	0xbf0af9db	-0.542875
40	0x3eb2f028	0.3494885
41	0xbee84e69	-0.45372322
42	0xbe0418ed	-0.12900133
43	0x3f06fb31	0.5272704
44	0x3e86d97e	0.26337808
45	0xbf2cc2dd	-0.6748484
46	0xbe24e6f9	-0.16103734
47	0x3ef0fc06	0.4706728
48	0xbea937cf	-0.3305039
49	0xbebb6827	-0.366029
50	0x3e25cabb	0.16190617
51	0xbeb9a82d	-0.3626112
52	0xbe607270	-0.21918654
53	0xbebaa502	-0.36454016
54	0x3ecd4827	0.4009411
55	0x3d8fb6ae	0.07017265
56	0x3eee13de	0.46499532
57	0x3e2de648	0.16982377
58	0xbe2f6be4	-0.17131001
59	0xbf0cc384	-0.54985833
60	0xbed71375	-0.42007032
61	0x3def38cf	0.11680757
62	0xbd270388	-0.040774852
63	0x3ea9b4f9	0.33145884
64	0xbed41f3a	-0.41430074
65	0xbefcc6eb	-0.49370512
66	0xbe7cccf1	-0.24687554
67	0x3e410a7d	0.18851657
68	0xbf3e9b47	-0.74455684
69	0xbed938e5	-0.4242622
70	0xbe1d309d	-0.15350576
71	0xbddcab37	-0.10774844
72	0x3e8cfa4b	0.27534708
73	0xbf0092a8	-0.5022378
74	0x3ea3dc3f	0.32003972
75	0x3da255b6	0.07926504
76	0x3efc1c08	0.49240136
77	0xbe06c88d	-0.13162442
78	0x3ec0bd95	0.3764464
79	0x3f279046	0.6545452
80	0xbd743dd2	-0.05962927
81	0xbe87fcd7	-0.2656009
82	0xbe88853e	-0.26664156
83	0xbdc6877f	-0.096938126
84	0x3ed594e1	0.41715148
85	0x3e737a6d	0.2377717
86	0xbe0987f0	-0.13430762
87	0xbe8e8173	-0.27833137
88	0xbef65340	-0.4811039
89	0x3ea88315	0.32912508
90	0x3e5b89fc	0.21439356
91	0x3ec2b1c2	0.38026243
92	0xbe008622	-0.12551168
93	0x3ebc9fd9	0.36840704
94	0x3f12a883	0.5728838
95	0x3f14b3bf	0.5808677
96	0xbf0e2df7	-0.55538887
97	0x3e91f846	0.2850973
98	0x3eab3316	0.33437413
99	0xbeedb7cf	-0.46429297
100	0xbe8a0326	-0.26955527
101	0x3e8d847b	0.27640137
102	0x3de51666	0.11185913
103	0xbf0209ec	-0.5079639
104	0x3ebf302b	0.37341437
105	0x3ddaa945	0.10676817
106	0xbea32e0d	-0.3187107
107	0x3dc4c801	0.0960846
108	0x3d06a4c2	0.03287197
109	0xbecad265	-0.39613643
110	0xbf05d080	-0.5227127
111	0x3ea439f6	0.3207547
112	0x3c5e437c	0.013565894
113	0xbe60240a	-0.21888748
114	0x3eedcea6	0.46446723
115	0xbea5d473	-0.32388648
116	0xbdfea868	-0.12434465
117	0xbeaaf51b	-0.33390126
118	0x3e30b031	0.17254712
119	0x3e64980b	0.22323625
120	0x3ee1bcd3	0.44089374
121	0x3cb729b4	0.022358753
122	0xbdb290a3	-0.087189935
123	0xbf0e8cd5	-0.5568364
124	0xbe8e22f7	-0.2776105
125	0x3ee077ff	0.4384155
126	0xbdef8984	-0.11696151
127	0x3ec0b628	0.37638974
128	0xbf237220	-0.63846016
129	0x3d3c1b65	0.045924563
130	0xbe3800d1	-0.17969061
131	0x3eb3b861	0.35101607
132	0xbe3a881b	-0.18215983
133	0xbd2395a6	-0.039937638
134	0xbe0d5957	-0.13803612
135	0xbd27a078	-0.04092452
136	0x3e9d66bf	0.30742452
137	0xbf11a6dc	-0.5689523
138	0x3e9ca00f	0.30590865
139	0x3e14d4a2	0.14534238
140	0x3ee07923	0.4384242
141	0xbe8c554e	-0.27408832
142	0x3eb16996	0.34650868
143	0x3e47b95c	0.19504303
144	0xbf1eb4d8	-0.61994696
145	0xbe9e5752	-0.30925995
146	0xbf1ab0a4	-0.6042578
147	0xbee2856d	-0.4424242
148	0x3e08ec65	0.13371427
149	0x3e874a72	0.26423985
150	0xbe5a8784	-0.21340758
151	0xbef27a58	-0.47358966
152	0xbf15b15f	-0.5847377
153	0x3e8a3dd4	0.27000296
154	0x3ccdd65e	0.025126632
155	0x3ebe50c7	0.37171003
156	0x3b6e948c	0.0036404459
157	0x3df57665	0.119854726
158	0xbc816775	-0.015796402
159	0x3f2ef0f6	0.6833643
160	0xbdfdce9f	-0.123929255
161	0x3e80e400	0.2517395
162	0x3e652f3b	0.22381298
163	0xbe9b5f8e	-0.3034634
164	0xbd269013	-0.040664744
165	0x3ea95c04	0.33078015
166	0x3ea84fe1	0.32873443
167	0xbec124da	-0.37723428
168	0x3eaebd4e	0.34128803
169	0xbe254bdc	-0.1614222
170	0xbe467dd6	-0.1938394
171	0x3f296933	0.66176146
172	0x3e4ddbcd	0.20103379
173	0xbeb38158	-0.3505962
174	0xbeaa7ed6	-0.33299893
175	0x3d5e6e99	0.054304693
176	0xbe20730a	-0.15668884
177	0xbebd0ffa	-0.36926252
178	0x3e81deb6	0.25365227
179	0xbeb5c7c1	-0.35503963
180	0xbee76558	-0.45194507
181	0xbe68ba32	-0.22727278
182	0x3ee21407	0.44155905
183	0x3e861085	0.26184478
184	0x3f074417	0.5283827
185	0xbed1f03e	-0.41003603
186	0xbee67bb1	-0.45016244
187	0xbe99a500	-0.30008698
188	0xbe845d4b	-0.25852427
189	0x3e31529d	0.1731667
190	0xbeac870e	-0.3369679
191	0x3f1c7d6e	0.6112889
192	0xbdd53b30	-0.1041168
193	0xbda5bde3	-0.08092859
194	0xbe19d7ca	-0.15023723
195	0x3ec1b41d	0.37832728
196	0xbe02527a	-0.12726775
197	0x3c116370	0.008873805
198	0xbe491dcc	-0.19640273
199	0xbdc30ba4	-0.09523705
200	0x3f1a2546	0.60213125
201	0xbe1d9d61	-0.15392067
202	0x3ef3917f	0.47571942
203	0x3dc79109	0.0974446
204	0x3ef5285b	0.4788235
205	0xbf0cd8d8	-0.5501838
206	0x3e0ca97e	0.13736531
207	0x3f28f2b3	0.6599533
208	0x3d5be9ca	0.053689755
209	0xbed3333d	-0.4125003
210	0xbec9f1e6	-0.39442366
211	0xbe0fff0a	-0.14062133
212	0x3eddafd2	0.43298203
213	0x3eb84945	0.359934
214	0xbeaf65ec	-0.34257448
215	0xbec6e5a4	-0.38847077
216	0xbec9a32e	-0.3938231
217	0x3ea537e8	0.32269216
218	0x3f203c07	0.62591594
219	0x3e8c1a36	0.27363747
220	0xbf08a1b4	-0.5337174
221	0x3e6fbdd0	0.23412251
222	0x3ef3ce55	0.47618356
223	0x3dd97d1a	0.10619564
224	0xbea89b35	-0.32930914
225	0x3ee508cd	0.44733277
226	0x3e01ff51	0.12695052
227	0xbe8d3ec8	-0.2758696
228	0xbe315c6e	-0.17320415
229	0x3e425a70	0.18979812
230	0x3e82353e	0.25431246
231	0xbe975057	-0.29553482
232	0x3e80666e	0.25078148
233	0xbe92f6b4	-0.28703845
234	0xbe2d4fd3	-0.16924982
235	0x3e40f7ef	0.18844579
236	0x3ea30749	0.31841496
237	0xbe88ab58	-0.26693225
238	0xbe4beb84	-0.19914061
239	0x3e45669f	0.19277428
240	0xbe18ae67	-0.14910279
241	0xbf1a1266	-0.60184324
242	0x3ea8a1d1	0.32935956
243	0xbeea8e89	-0.4581187
244	0xbf1c2c33	-0.6100494
245	0xbe92ff8c	-0.28710592
246	0x3d7ab5cb	0.061208528
247	0xbbf37c9a	-0.007430625
248	0x3eb9634e	0.36208576
249	0xbf304be3	-0.68865794
250	0xbeff4142	-0.49854475
251	0xbee96b74	-0.45589793
252	0xbe8f5323	-0.27993116
253	0x3e8754f2	0.26431996
254	0xbd21edc4	-0.03953339
255	0x3edd8835	0.4326798

mlp_extractor.value_net.2.bias f4 [64]
0	0xbe53fb08	-0.2070123
1	0xbe5b0044	-0.2138682
2	0xbe869807	-0.26287863
3	0xbe47bc6b	-0.1950547
4	0xbe51e9d6	-0.20499358
5	0x3e89c6d2	0.269095
6	0x3e81d3c0	0.25356865
7	0xbe2b7bb2	-0.16746405
8	0xbe2fb17a	-0.17157546
9	0x3e60dac7	0.21958457
10	0xbe5ccb31	-0.21561886
11	0x3e72c8d7	0.23709427
12	0xbe34dc25	-0.17662103
13	0xbe47a498	-0.19496381
14	0x3e323d20	0.1740613
15	0xbe317422	-0.17329457
16	0x3e2ae492	0.16688755
17	0xbe629eaf	-0.22130845
18	0xbe5c9f63	-0.21545176
19	0x3e490340	0.19630146
20	0xbe4da3a3	-0.20081954
21	0x3e889425	0.26675525
22	0xbe5c1579	-0.21492566
23	0xbe3e865c	-0.18605942
24	0x3e417d67	0.18895493
25	0xbe4ca451	-0.19984557
26	0xbe445d45	-0.19176205
27	0x3e29bb67	0.16575395
28	0x3e42bbf4	0.19017011
29	0x3e59bff3	0.21264629
30	0x3e3c2a75	0.18375571
31	0xbe843eec	-0.25829256
32	0xbe47e6d7	-0.19521652
33	0x3e38d434	0.18049699
34	0x3e396b0e	0.18107244
35	0x3e26b7b0	0.16281009
36	0xbe20e76e	-0.15713283
37	0xbe848231	-0.25880578
38	0xbe4a057a	-0.19728652
39	0xbe67e5ee	-0.22646305
40	0x3e603f00	0.21899033
41	0x3e6e933c	0.23298353
42	0xbe4c5777	-0.1995524
43	0x3e66eb84	0.2255078
44	0x3e41779e	0.18893287
45	0x3e3a4987	0.18192111
46	0xbe72be85	-0.2370549
47	0x3e278023	0.16357474
48	0xbe480696	-0.19533762
49	0xbe2a2324	-0.16614968
50	0xbe4cfa2f	-0.20017312
51	0xbe1f9a8c	-0.15586299
52	0x3e3d43fe	0.18482968
53	0x3e4b8f6d	0.19878931
54	0xbe206029	-0.15661682
55	0xbe804953	-0.25055942
56	0xbe2e1f0d	-0.17004032
57	0x3e2c96b0	0.16854358
58	0xbe473fa0	-0.19457865
59	0xbe653006	-0.223816
60	0x3e621285	0.22077377
61	0xbe410494	-0.18849403
62	0x3e8c6adb	0.27425274
63	0x3e5c982d	0.21542425

action_net.weight f4 [3, 64]
0	0x3d8d25c8	0.06891972
1	0xbd5d952d	-0.054097343
2	0x3dc7824e	0.097416505
3	0xbdd39566	-0.1033123
4	0x3da158eb	0.07878288
5	0xbda7c18d	-0.08191214
6	0xbdbd5bb5	-0.09246007
7	0xbdac9ac8	-0.0842796
8	0x3d819e6c	0.06329045
9	0x3db9ccea	0.090722874
10	0xbd980725	-0.07423238
11	0x3da62d5f	0.081141226
12	0xbdb56192	-0.08856501
13	0x3dd80351	0.105475076
14	0xbdc2d048	-0.09512383
15	0x3da0dd19	0.07854671
16	0xbd9316bb	-0.0718207
17	0x3d9931e0	0.07480216
18	0x3d9f5cdd	0.07781384
19	0x3dcc4185	0.09973434
20	0xbd96b28a	-0.073582724
21	0x3da5d95f	0.08098101
22	0xbd92c0f7	-0.071657114
23	0xbdbb454d	-0.091440775
24	0x3d84b041	0.0647893
25	0x3d975ecc	0.07391128
26	0x3d0cd86d	0.034386087
27	0x3db1c4df	0.08680128
28	0xbdcc2c6f	-0.099694125
29	0xbda8bd5f	-0.08239245
30	0xbda15456	-0.07877414
31	0x3d9e665f	0.077343695
32	0x3da301ba	0.07959314
33	0xbdc1a0c9	-0.094544955
34	0x3db2536f	0.0870732
35	0xbdcbcd69	-0.09951288
36	0xbd7da87b	-0.061928254
37	0x3dbea40b	0.093086325
38	0xbdc80ed7	-0.097684555
39	0x3d9ed704	0.07755855
40	0xbd961864	-0.07328871
41	0xbd983241	-0.0743146
42	0xbd9a1883	-0.075242065
43	0x3d9a54ad	0.07535682
44	0x3db40bf0	0.087913394
45	0x3dddc7b0	0.10829103
46	0x3da34cbd	0.07973621
47	0xbd90a479	-0.07062621
48	0x3d9e9ca9	0.07744724
49	0xbda47570	-0.08030212
50	0x3d8611c2	0.06546356
51	0xbdc1ec6d	-0.09468923
52	0x3dccb600	0.09995651
53	0x3d7e72b5	0.062121112
54	0x3dc81c0f	0.09770977
55	0x3d923c3a	0.071403936
56	0xbdde3c31	-0.10851324
57	0x3d9bcefd	0.07607839
58	0x3d8d7e1e	0.069088206
59	0x3dd06ce4	0.10177019
60	0xbda98ff5	-0.08279411
61	0x3da2f480	0.07956791
62	0x3d88146f	0.066445224
63	0xbdcd596f	-0.10026824
64	0x3cdf2236	0.027237993
65	0xbd35ef2a	-0.044417538
66	0x3d5dffc1	0.054198984
67	0xbd501f08	-0.050810844
68	0x3d84e9eb	0.06489929
69	0xbd79b7b4	-0.06096621
70	0xbd7aa4f2	-0.06119246
71	0xbd6229d3	-0.055215668
72	0x3d6a4681	0.057196144
73	0x3d8688bd	0.065690495
74	0xbd072b80	-0.03300047
75	0x3d10a044	0.03530909
76	0xbd877a39	-0.06615109
77	0x3d2c3693	0.042044234
78	0xbd53fbaf	-0.051753696
79	0x3d80bc65	0.062859334
80	0xbd831740	-0.06400919
81	0x3d8063f9	0.06269068
82	0x3d0aee48	0.03391865
83	0x3d550cb1	0.052014057
84	0xbd865e77	-0.065609865
85	0x3d81f6a1	0.06345869
86	0xbd21ebcd	-0.039531518
87	0xbd85b621	-0.06528879
88	0x3d8dc217	0.06921785
89	0x3d55f1c0	0.052232504
90	0x3ce59903	0.028027063
91	0x3d706b2b	0.058695953
92	0xbd4f3310	-0.050585806
93	0xbd48a005	-0.04898073
94	0xbd89cf1c	-0.06728956
95	0x3d846b6f	0.06465804
96	0x3d76319d	0.06010591
97	0xbd34c291	-0.044130865
98	0x3d5fca56	0.054636322
99	0xbd5013cf	-0.05080014
100	0xbd70eee0	-0.05882156
101	0x3d83e28c	0.06439695
102	0xbd557b49	-0.052119527
103	0x3d784543	0.060612928
104	0xbd4d62c4	-0.05014302
105	0xbd86a332	-0.06574096
106	0xbd87b4bc	-0.06626269
107	0x3d7d709c	0.06187497
108	0x3d8a3b70	0.06749618
109	0x3d586ee8	0.052840143
110	0x3d50cb82	0.05097533
111	0xbd7d2ada	-0.061808445
112	0x3d86aa4e	0.06575452
113	0xbd83b190	-0.06430352
114	0x3d520a74	0.0512795
115	0xbd1fc28b	-0.03900389
116	0x3d5a8f0e	0.053359084
117	0x3d5e798e	0.054315142
118	0x3d83ce59	0.06435842
119	0x3d6ef746	0.058341287
120	0xbd8021c6	-0.06256442
121	0x3d04cd7e	0.032422535
122	0x3d4da458	0.05020556
123	0x3d1d6393	0.03842504
124	0xbd85dcb0	-0.065362334
125	0x3d842739	0.06452794
126	0x3d1f79cd	0.038934518
127	0xbd5a11b8	-0.053239554
128	0xbdbfcf46	-0.09365706
129	0x3dd4724f	0.10373365
130	0xbdc814ba	-0.09769578
131	0x3dce191f	0.10063385
132	0xbdce86c8	-0.10084301
133	0x3dc73ae7	0.097280316
134	0x3db80c06	0.08986668
135	0x3dba2bdc	0.09090397
136	0xbdcdf5c7	-0.10056644
137	0xbdc3b6d8	-0.09556359
138	0x3d855081	0.065094955
139	0xbd83f79a	-0.064437106
140	0x3dcb4af8	0.099264085
141	0xbd0ca787	-0.034339454
142	0x3da650a5	0.081208505
143	0xbdbb911a	-0.09158535
144	0x3dd2a9db	0.102863036
145	0xbdc7eab8	-0.09761566
146	0xbcee2faa	-0.029075462
147	0xbdc9f1e4	-0.0986059
148	0x3dc3711f	0.095430605
149	0xbdd3693d	-0.10322807
150	0x3dc1779f	0.09446644
151	0x3dc7cfd9	0.09756441
152	0xbdd236aa	-0.102643326
153	0xbdbf13f2	-0.09329976
154	0xbd90da1c	-0.07072851
155	0xbdbc2c21	-0.091881044
156	0x3dd23363	0.102637075
157	0x3d93db5e	0.07219575
158	0x3dc91a8e	0.09819518
159	0xbdbed377	-0.093176775
160	0xbdd0b098	-0.101899326
161	0x3dd0dfff	0.10198974
162	0xbd9d97ec	-0.076949924
163	0x3dd313f8	0.10306543
164	0x3dd327ad	0.10310302
165	0xbdc8c321	-0.09802843
166	0x3dc972a5	0.0983632
167	0xbdd0eb30	-0.102011085
168	0x3dc10512	0.09424795
169	0x3dbd98b4	0.092576414
170	0x3dcb26ad	0.09919486
171	0xbdc93088	-0.0982371
172	0xbdcbf1a2	-0.09958197
173	0xbdaf4be9	-0.085594006
174	0xbdcbfd32	-0.099604025
175	0x3dc85c52	0.09783234
176	0xbdc9a32f	-0.09845578
177	0x3dcd8ab7	0.100362234
178	0xbdc16990	-0.094439626
179	0x3d30085d	0.042976726
180	0xbdcc7f02	-0.09985162
181	0xbdd38407	-0.103279166
182	0xbdc6f8e7	-0.09715443
183	0xbdc624d5	-0.09674994
184	0x3d92a6d2	0.07160725
185	0xbd6d0da8	-0.05787435
186	0xbdbb7b3f	-0.09154367
187	0xbd4f05c7	-0.05054262
188	0x3dd0d3d8	0.10196656
189	0xbdc8d815	-0.098068394
190	0xbdb96d79	-0.090540834
191	0x3dcfd2a7	0.101476006

action_net.bias f4 [3]
0	0xbdd03d74	-0.10167971
1	0xbd585924	-0.052819386
2	0x3d757eaa	0.05993525

value_net.weight f4 [1, 64]
0	0xbfc1ac89	-1.5130779
1	0xbfba7a3f	-1.4568557
2	0xbfb7c945	-1.4358298
3	0xbfbf8b28	-1.4964342
4	0xbfbf4076	-1.4941547
5	0x3fb698bf	1.4265364
6	0x3fb8e7be	1.4445722
7	0xbfc12702	-1.5090029
8	0xbfc78e74	-1.5590348
9	0x3fc0ee97	1.5072812
10	0xbfbe1160	-1.4849052
11	0x3fbabfa2	1.4589732
12	0xbfc93395	-1.5718867
13	0xbfb77e41	-1.4335405
14	0x3fc20899	1.5158874
15	0xbfc4fc55	-1.5389506
16	0x3fd3cc39	1.6546699
17	0xbfbfb419	-1.4976836
18	0xbfba3cba	-1.4549782
19	0x3fb93d5d	1.4471852
20	0xbfbe073c	-1.4845958
21	0x3fb9c0e6	1.4511993
22	0xbfb9d616	-1.4518459
23	0xbfc18d25	-1.5121199
24	0x3fc7d4a9	1.5611774
25	0xbfc50bc7	-1.5394219
26	0xbfc7bbb4	-1.5604157
27	0x3fcfd954	1.6238198
28	0x3fc2e7b9	1.5226966
29	0x3fb9c97e	1.4514616
30	0x3fc6a4e9	1.5519077
31	0xbfb5aa4c	-1.4192595
32	0xbfc75daa	-1.5575459
33	0x3fc44c74	1.5335832
34	0x3fc4fc56	1.5389507
35	0x3fcfb705	1.6227728
36	0xbfdfdbde	-1.7488973
37	0xbfb6bea0	-1.4276924
38	0xbfc7be3d	-1.5604931
39	0xbfc02d7e	-1.5013883
40	0x3fc4997e	1.5359342
41	0x3fb3d1ff	1.4048461
42	0xbfc60ad0	-1.547205
43	0x3fb84d4e	1.4398592
44	0x3fc634a6	1.5484817
45	0x3fc74a38	1.5569525
46	0xbfb92c2a	-1.4466603
47	0x3fd028b7	1.6262425
48	0xbfc0a5ef	-1.5050639
49	0xbfce54f9	-1.6119682
50	0xbfc7c182	-1.5605929
51	0xbfd02288	-1.6260538
52	0x3fc86611	1.5656148
53	0x3fc54725	1.5412337
54	0xbfcb0cce	-1.5863283
55	0xbfb992c5	-1.4497916
56	0xbfc91beb	-1.5711645
57	0x3fd313f1	1.6490461
58	0xbfbf844f	-1.4962252
59	0xbfbfcf19	-1.4985076
60	0x3fbdb62a	1.4821217
61	0xbfc2b671	-1.5211927
62	0x3fb7e6c2	1.4367297
63	0x3fb1316a	1.3843205
